ir_version: 6
producer_name: "pytorch"
producer_version: "1.5"
graph {
  node {
    input: "input"
    input: "layer1.conv.weight"
    input: "layer1.conv.bias"
    output: "13"
    name: "Conv_0"
    op_type: "Conv"
    attribute {
      name: "dilations"
      ints: 1
      ints: 1
      type: INTS
    }
    attribute {
      name: "group"
      i: 1
      type: INT
    }
    attribute {
      name: "kernel_shape"
      ints: 3
      ints: 3
      type: INTS
    }
    attribute {
      name: "pads"
      ints: 0
      ints: 0
      ints: 0
      ints: 0
      type: INTS
    }
    attribute {
      name: "strides"
      ints: 1
      ints: 1
      type: INTS
    }
  }
  node {
    input: "13"
    input: "layer1.bn.weight"
    input: "layer1.bn.bias"
    input: "layer1.bn.running_mean"
    input: "layer1.bn.running_var"
    output: "14"
    name: "BatchNormalization_1"
    op_type: "BatchNormalization"
    attribute {
      name: "epsilon"
      f: 9.999999747378752e-06
      type: FLOAT
    }
    attribute {
      name: "momentum"
      f: 0.8999999761581421
      type: FLOAT
    }
  }
  node {
    input: "14"
    output: "15"
    name: "Relu_2"
    op_type: "Relu"
  }
  node {
    input: "15"
    input: "bn.weight"
    input: "bn.bias"
    input: "bn.running_mean"
    input: "bn.running_var"
    output: "16"
    name: "BatchNormalization_3"
    op_type: "BatchNormalization"
    attribute {
      name: "epsilon"
      f: 9.999999747378752e-06
      type: FLOAT
    }
    attribute {
      name: "momentum"
      f: 0.8999999761581421
      type: FLOAT
    }
  }
  node {
    input: "16"
    input: "15"
    output: "17"
    name: "Add_4"
    op_type: "Add"
  }
  name: "torch-jit-export"
  initializer {
    dims: 16
    data_type: 1
    name: "bn.bias"
    raw_data: "…"
  }
  initializer {
    dims: 16
    data_type: 1
    name: "bn.running_mean"
    raw_data: "…"
  }
  initializer {
    dims: 16
    data_type: 1
    name: "bn.running_var"
    raw_data: "…"
  }
  initializer {
    dims: 16
    data_type: 1
    name: "bn.weight"
    raw_data: "…"
  }
  initializer {
    dims: 16
    data_type: 1
    name: "layer1.bn.bias"
    raw_data: "…"
  }
  initializer {
    dims: 16
    data_type: 1
    name: "layer1.bn.running_mean"
    raw_data: "…"
  }
  initializer {
    dims: 16
    data_type: 1
    name: "layer1.bn.running_var"
    raw_data: "…"
  }
  initializer {
    dims: 16
    data_type: 1
    name: "layer1.bn.weight"
    raw_data: "…"
  }
  initializer {
    dims: 16
    data_type: 1
    name: "layer1.conv.bias"
    raw_data: "…"
  }
  initializer {
    dims: 16
    dims: 3
    dims: 3
    dims: 3
    data_type: 1
    name: "layer1.conv.weight"
    raw_data: "…"
  }
  input {
    name: "input"
    type {
      tensor_type {
        elem_type: 1
        shape {
          dim {
            dim_value: 1
          }
          dim {
            dim_value: 3
          }
          dim {
            dim_value: 28
          }
          dim {
            dim_value: 28
          }
        }
      }
    }
  }
  output {
    name: "17"
    type {
      tensor_type {
        elem_type: 1
        shape {
          dim {
            dim_value: 1
          }
          dim {
            dim_value: 16
          }
          dim {
            dim_value: 26
          }
          dim {
            dim_value: 26
          }
        }
      }
    }
  }
}
opset_import {
  version: 9
}
