ir_version: 7
producer_name: "GlowONNXModelWriter"
graph {
  node {
    output: "zero"
    name: "zero"
    op_type: "Glow_Splat"
    attribute {
      name: "o0_elemKind"
      s: "bool"
      type: STRING
    }
    attribute {
      name: "o0_shape"
      ints: 3
      ints: 3
      ints: 1
      type: INTS
    }
    attribute {
      name: "Value"
      f: 0
      type: FLOAT
    }
  }
  node {
    input: "zero"
    input: "cond"
    output: "broadcast_cond_tile1__1"
    name: "broadcast_cond_tile1__1"
    op_type: "Glow_InsertTensor"
    attribute {
      name: "i0_elemKind"
      s: "bool"
      type: STRING
    }
    attribute {
      name: "i0_shape"
      ints: 3
      ints: 3
      ints: 1
      type: INTS
    }
    attribute {
      name: "i1_elemKind"
      s: "bool"
      type: STRING
    }
    attribute {
      name: "i1_shape"
      ints: 3
      ints: 1
      ints: 1
      type: INTS
    }
    attribute {
      name: "o0_elemKind"
      s: "bool"
      type: STRING
    }
    attribute {
      name: "o0_shape"
      ints: 3
      ints: 3
      ints: 1
      type: INTS
    }
    attribute {
      name: "Start"
      ints: 0
      ints: 0
      ints: 0
      type: INTS
    }
    attribute {
      name: "Count"
      i: 3
      type: INT
    }
    attribute {
      name: "Axis"
      i: 1
      type: INT
    }
  }
  node {
    output: "zero__1"
    name: "zero__1"
    op_type: "Glow_Splat"
    attribute {
      name: "o0_elemKind"
      s: "i8"
      type: STRING
    }
    attribute {
      name: "o0_shape"
      ints: 3
      ints: 3
      ints: 1
      type: INTS
    }
    attribute {
      name: "o0_qScale"
      f: 1
      type: FLOAT
    }
    attribute {
      name: "o0_qOffset"
      i: 0
      type: INT
    }
    attribute {
      name: "Value"
      f: 0
      type: FLOAT
    }
  }
  node {
    input: "zero__1"
    input: "X"
    output: "broadcast_X_tile0__1"
    name: "broadcast_X_tile0__1"
    op_type: "Glow_InsertTensor"
    attribute {
      name: "i0_elemKind"
      s: "i8"
      type: STRING
    }
    attribute {
      name: "i0_shape"
      ints: 3
      ints: 3
      ints: 1
      type: INTS
    }
    attribute {
      name: "i0_qScale"
      f: 1
      type: FLOAT
    }
    attribute {
      name: "i0_qOffset"
      i: 0
      type: INT
    }
    attribute {
      name: "i1_elemKind"
      s: "i8"
      type: STRING
    }
    attribute {
      name: "i1_shape"
      ints: 1
      ints: 3
      ints: 1
      type: INTS
    }
    attribute {
      name: "i1_qScale"
      f: 1
      type: FLOAT
    }
    attribute {
      name: "i1_qOffset"
      i: 0
      type: INT
    }
    attribute {
      name: "o0_elemKind"
      s: "i8"
      type: STRING
    }
    attribute {
      name: "o0_shape"
      ints: 3
      ints: 3
      ints: 1
      type: INTS
    }
    attribute {
      name: "o0_qScale"
      f: 1
      type: FLOAT
    }
    attribute {
      name: "o0_qOffset"
      i: 0
      type: INT
    }
    attribute {
      name: "Start"
      ints: 0
      ints: 0
      ints: 0
      type: INTS
    }
    attribute {
      name: "Count"
      i: 3
      type: INT
    }
    attribute {
      name: "Axis"
      i: 0
      type: INT
    }
  }
  node {
    input: "zero__1"
    input: "Y"
    output: "broadcast_Y_tile1__1"
    name: "broadcast_Y_tile1__1"
    op_type: "Glow_InsertTensor"
    attribute {
      name: "i0_elemKind"
      s: "i8"
      type: STRING
    }
    attribute {
      name: "i0_shape"
      ints: 3
      ints: 3
      ints: 1
      type: INTS
    }
    attribute {
      name: "i0_qScale"
      f: 1
      type: FLOAT
    }
    attribute {
      name: "i0_qOffset"
      i: 0
      type: INT
    }
    attribute {
      name: "i1_elemKind"
      s: "i8"
      type: STRING
    }
    attribute {
      name: "i1_shape"
      ints: 3
      ints: 1
      ints: 1
      type: INTS
    }
    attribute {
      name: "i1_qScale"
      f: 1
      type: FLOAT
    }
    attribute {
      name: "i1_qOffset"
      i: 0
      type: INT
    }
    attribute {
      name: "o0_elemKind"
      s: "i8"
      type: STRING
    }
    attribute {
      name: "o0_shape"
      ints: 3
      ints: 3
      ints: 1
      type: INTS
    }
    attribute {
      name: "o0_qScale"
      f: 1
      type: FLOAT
    }
    attribute {
      name: "o0_qOffset"
      i: 0
      type: INT
    }
    attribute {
      name: "Start"
      ints: 0
      ints: 0
      ints: 0
      type: INTS
    }
    attribute {
      name: "Count"
      i: 3
      type: INT
    }
    attribute {
      name: "Axis"
      i: 1
      type: INT
    }
  }
  node {
    input: "broadcast_cond_tile1__1"
    input: "broadcast_X_tile0__1"
    input: "broadcast_Y_tile1__1"
    output: "Select"
    name: "Select"
    op_type: "Glow_Select"
    attribute {
      name: "i0_elemKind"
      s: "bool"
      type: STRING
    }
    attribute {
      name: "i0_shape"
      ints: 3
      ints: 3
      ints: 1
      type: INTS
    }
    attribute {
      name: "i1_elemKind"
      s: "i8"
      type: STRING
    }
    attribute {
      name: "i1_shape"
      ints: 3
      ints: 3
      ints: 1
      type: INTS
    }
    attribute {
      name: "i1_qScale"
      f: 1
      type: FLOAT
    }
    attribute {
      name: "i1_qOffset"
      i: 0
      type: INT
    }
    attribute {
      name: "i2_elemKind"
      s: "i8"
      type: STRING
    }
    attribute {
      name: "i2_shape"
      ints: 3
      ints: 3
      ints: 1
      type: INTS
    }
    attribute {
      name: "i2_qScale"
      f: 1
      type: FLOAT
    }
    attribute {
      name: "i2_qOffset"
      i: 0
      type: INT
    }
    attribute {
      name: "o0_elemKind"
      s: "i8"
      type: STRING
    }
    attribute {
      name: "o0_shape"
      ints: 3
      ints: 3
      ints: 1
      type: INTS
    }
    attribute {
      name: "o0_qScale"
      f: 1
      type: FLOAT
    }
    attribute {
      name: "o0_qOffset"
      i: 0
      type: INT
    }
  }
  node {
    input: "Select"
    output: "save"
    name: "save_save"
    op_type: "Identity"
    attribute {
      name: "i0_elemKind"
      s: "i8"
      type: STRING
    }
    attribute {
      name: "i0_shape"
      ints: 3
      ints: 3
      ints: 1
      type: INTS
    }
    attribute {
      name: "i0_qScale"
      f: 1
      type: FLOAT
    }
    attribute {
      name: "i0_qOffset"
      i: 0
      type: INT
    }
    attribute {
      name: "o1_elemKind"
      s: "i8"
      type: STRING
    }
    attribute {
      name: "o1_shape"
      ints: 3
      ints: 3
      ints: 1
      type: INTS
    }
    attribute {
      name: "o1_qScale"
      f: 1
      type: FLOAT
    }
    attribute {
      name: "o1_qOffset"
      i: 0
      type: INT
    }
  }
  name: "glow"
  input {
    name: "Y"
    type {
      tensor_type {
        elem_type: 3
        shape {
          dim {
            dim_value: 3
          }
          dim {
            dim_value: 1
          }
          dim {
            dim_value: 1
          }
        }
      }
    }
    doc_string: "$offline:0$trainable:1$layout:*$elemKind:i8$qScale:1.000000000000000000000000000000$qOffset:0"
  }
  input {
    name: "X"
    type {
      tensor_type {
        elem_type: 3
        shape {
          dim {
            dim_value: 1
          }
          dim {
            dim_value: 3
          }
          dim {
            dim_value: 1
          }
        }
      }
    }
    doc_string: "$offline:0$trainable:1$layout:*$elemKind:i8$qScale:1.000000000000000000000000000000$qOffset:0"
  }
  input {
    name: "cond"
    type {
      tensor_type {
        elem_type: 9
        shape {
          dim {
            dim_value: 3
          }
          dim {
            dim_value: 1
          }
          dim {
            dim_value: 1
          }
        }
      }
    }
    doc_string: "$offline:0$trainable:0$layout:*$elemKind:bool"
  }
  output {
    name: "save"
    type {
      tensor_type {
        elem_type: 3
        shape {
          dim {
            dim_value: 3
          }
          dim {
            dim_value: 3
          }
          dim {
            dim_value: 1
          }
        }
      }
    }
    doc_string: "$offline:0$trainable:0$layout:*$elemKind:i8$qScale:1.000000000000000000000000000000$qOffset:0$saveName:save_save"
  }
}
opset_import {
  version: 9
}
metadata_props {
  key: "GlowRevisionHash"
  value: "89723734922965ce36f05a24cbec87c6d8ba3f46"
}
